[2022-09-18 00:49:23,383: INFO: 02_transfer_learning]: 
********************
[2022-09-18 00:49:23,383: INFO: 02_transfer_learning]: >>>>> stage transfer learning started <<<<<
[2022-09-18 00:49:23,383: INFO: common]: yaml file: configs/config.yaml loaded successfully
[2022-09-18 00:49:23,883: INFO: 02_transfer_learning]: loaded_base_model_summary: 
Model: "sequential"
_________________________________________________________________
 Layer (type)                Output Shape              Param #   
=================================================================
 flatten (Flatten)           (None, 784)               0         
                                                                 
 hidden_layer_1 (Dense)      (None, 300)               235500    
                                                                 
 leaky_re_lu (LeakyReLU)     (None, 300)               0         
                                                                 
 hidden_layer_2 (Dense)      (None, 100)               30100     
                                                                 
 leaky_re_lu_1 (LeakyReLU)   (None, 100)               0         
                                                                 
 output_layer (Dense)        (None, 10)                1010      
                                                                 
=================================================================
Total params: 266,610
Trainable params: 266,610
Non-trainable params: 0
_________________________________________________________________

[2022-09-18 00:49:23,923: INFO: 02_transfer_learning]: transfer learning model summary; 
Model: "sequential"
_________________________________________________________________
 Layer (type)                Output Shape              Param #   
=================================================================
 flatten (Flatten)           (None, 784)               0         
                                                                 
 hidden_layer_1 (Dense)      (None, 300)               235500    
                                                                 
 leaky_re_lu (LeakyReLU)     (None, 300)               0         
                                                                 
 hidden_layer_2 (Dense)      (None, 100)               30100     
                                                                 
 leaky_re_lu_1 (LeakyReLU)   (None, 100)               0         
                                                                 
 output_layer (Dense)        (None, 2)                 202       
                                                                 
=================================================================
Total params: 265,802
Trainable params: 202
Non-trainable params: 265,600
_________________________________________________________________

[2022-09-18 00:49:24,063: WARNING: ag_logging]: AutoGraph could not transform <function Model.make_train_function.<locals>.train_function at 0x00000211AFBC7DC8> and will run it as-is.
…
